…
[2024-03-31 06:50:04 vssm_tiny] (main.py 412): INFO {"cfg": "configs/vssm/vssm_tiny_224.yaml", "opts": null, "batch_size": 64, "data_path": "/data/ldz/soy_316_64", "zip": false, "cache_mode": "part", "pretrained": null, "resume": null, "accumulation_steps": null, "use_checkpoint": false, "disable_amp": false, "output": "/root/autodl-tmp/VMamba/cla", "tag": "20240331065003", "eval": false, "throughput": false, "fused_layernorm": false, "optim": null, "model_ema": false, "model_ema_decay": 0.9999, "model_ema_force_cpu": false, "memory_limit_rate": -1}
[2024-03-31 06:50:04 vssm_tiny] (main.py 107): INFO Creating model:vssm/vssm_tiny
[2024-03-31 06:50:05 vssm_tiny] (main.py 112): INFO VSSM(
  (patch_embed): Sequential(
    (0): Conv2d(3, 96, kernel_size=(4, 4), stride=(4, 4))
    (1): Permute()
    (2): LayerNorm((96,), eps=1e-05, elementwise_affine=True)
  )
  (layers): ModuleList(
    (0): Sequential(
      (blocks): Sequential(
        (0): VSSBlock(
          (norm): LayerNorm((96,), eps=1e-05, elementwise_affine=True)
          (op): SS2D(
            (out_norm): LayerNorm((192,), eps=1e-05, elementwise_affine=True)
            (in_proj): Linear(in_features=96, out_features=384, bias=False)
            (act): SiLU()
            (conv2d): Conv2d(192, 192, kernel_size=(3, 3), stride=(1, 1), padding=(1, 1), groups=192)
            (out_proj): Linear(in_features=192, out_features=96, bias=False)
            (dropout): Identity()
          )
          (drop_path): timm.DropPath(0.0)
        )
        (1): VSSBlock(
          (norm): LayerNorm((96,), eps=1e-05, elementwise_affine=True)
          (op): SS2D(
            (out_norm): LayerNorm((192,), eps=1e-05, elementwise_affine=True)
            (in_proj): Linear(in_features=96, out_features=384, bias=False)
            (act): SiLU()
            (conv2d): Conv2d(192, 192, kernel_size=(3, 3), stride=(1, 1), padding=(1, 1), groups=192)
            (out_proj): Linear(in_features=192, out_features=96, bias=False)
            (dropout): Identity()
          )
          (drop_path): timm.DropPath(0.014285714365541935)
        )
      )
      (downsample): PatchMerging2D(
        (reduction): Linear(in_features=384, out_features=192, bias=False)
        (norm): LayerNorm((384,), eps=1e-05, elementwise_affine=True)
      )
    )
    (1): Sequential(
      (blocks): Sequential(
        (0): VSSBlock(
          (norm): LayerNorm((192,), eps=1e-05, elementwise_affine=True)
          (op): SS2D(
            (out_norm): LayerNorm((384,), eps=1e-05, elementwise_affine=True)
            (in_proj): Linear(in_features=192, out_features=768, bias=False)
            (act): SiLU()
            (conv2d): Conv2d(384, 384, kernel_size=(3, 3), stride=(1, 1), padding=(1, 1), groups=384)
            (out_proj): Linear(in_features=384, out_features=192, bias=False)
            (dropout): Identity()
          )
          (drop_path): timm.DropPath(0.02857142873108387)
        )
        (1): VSSBlock(
          (norm): LayerNorm((192,), eps=1e-05, elementwise_affine=True)
          (op): SS2D(
            (out_norm): LayerNorm((384,), eps=1e-05, elementwise_affine=True)
            (in_proj): Linear(in_features=192, out_features=768, bias=False)
            (act): SiLU()
            (conv2d): Conv2d(384, 384, kernel_size=(3, 3), stride=(1, 1), padding=(1, 1), groups=384)
            (out_proj): Linear(in_features=384, out_features=192, bias=False)
            (dropout): Identity()
          )
          (drop_path): timm.DropPath(0.04285714402794838)
        )
      )
      (downsample): PatchMerging2D(
        (reduction): Linear(in_features=768, out_features=384, bias=False)
        (norm): LayerNorm((768,), eps=1e-05, elementwise_affine=True)
      )
    )
    (2): Sequential(
      (blocks): Sequential(
        (0): VSSBlock(
          (norm): LayerNorm((384,), eps=1e-05, elementwise_affine=True)
          (op): SS2D(
            (out_norm): LayerNorm((768,), eps=1e-05, elementwise_affine=True)
            (in_proj): Linear(in_features=384, out_features=1536, bias=False)
            (act): SiLU()
            (conv2d): Conv2d(768, 768, kernel_size=(3, 3), stride=(1, 1), padding=(1, 1), groups=768)
            (out_proj): Linear(in_features=768, out_features=384, bias=False)
            (dropout): Identity()
          )
          (drop_path): timm.DropPath(0.05714285746216774)
        )
        (1): VSSBlock(
          (norm): LayerNorm((384,), eps=1e-05, elementwise_affine=True)
          (op): SS2D(
            (out_norm): LayerNorm((768,), eps=1e-05, elementwise_affine=True)
            (in_proj): Linear(in_features=384, out_features=1536, bias=False)
            (act): SiLU()
            (conv2d): Conv2d(768, 768, kernel_size=(3, 3), stride=(1, 1), padding=(1, 1), groups=768)
            (out_proj): Linear(in_features=768, out_features=384, bias=False)
            (dropout): Identity()
          )
          (drop_path): timm.DropPath(0.0714285746216774)
        )
        (2): VSSBlock(
          (norm): LayerNorm((384,), eps=1e-05, elementwise_affine=True)
          (op): SS2D(
            (out_norm): LayerNorm((768,), eps=1e-05, elementwise_affine=True)
            (in_proj): Linear(in_features=384, out_features=1536, bias=False)
            (act): SiLU()
            (conv2d): Conv2d(768, 768, kernel_size=(3, 3), stride=(1, 1), padding=(1, 1), groups=768)
            (out_proj): Linear(in_features=768, out_features=384, bias=False)
            (dropout): Identity()
          )
          (drop_path): timm.DropPath(0.08571428805589676)
        )
        (3): VSSBlock(
          (norm): LayerNorm((384,), eps=1e-05, elementwise_affine=True)
          (op): SS2D(
            (out_norm): LayerNorm((768,), eps=1e-05, elementwise_affine=True)
            (in_proj): Linear(in_features=384, out_features=1536, bias=False)
            (act): SiLU()
            (conv2d): Conv2d(768, 768, kernel_size=(3, 3), stride=(1, 1), padding=(1, 1), groups=768)
            (out_proj): Linear(in_features=768, out_features=384, bias=False)
            (dropout): Identity()
          )
          (drop_path): timm.DropPath(0.10000000149011612)
        )
        (4): VSSBlock(
          (norm): LayerNorm((384,), eps=1e-05, elementwise_affine=True)
          (op): SS2D(
            (out_norm): LayerNorm((768,), eps=1e-05, elementwise_affine=True)
            (in_proj): Linear(in_features=384, out_features=1536, bias=False)
            (act): SiLU()
            (conv2d): Conv2d(768, 768, kernel_size=(3, 3), stride=(1, 1), padding=(1, 1), groups=768)
            (out_proj): Linear(in_features=768, out_features=384, bias=False)
            (dropout): Identity()
          )
          (drop_path): timm.DropPath(0.11428571492433548)
        )
        (5): VSSBlock(
          (norm): LayerNorm((384,), eps=1e-05, elementwise_affine=True)
          (op): SS2D(
            (out_norm): LayerNorm((768,), eps=1e-05, elementwise_affine=True)
            (in_proj): Linear(in_features=384, out_features=1536, bias=False)
            (act): SiLU()
            (conv2d): Conv2d(768, 768, kernel_size=(3, 3), stride=(1, 1), padding=(1, 1), groups=768)
            (out_proj): Linear(in_features=768, out_features=384, bias=False)
            (dropout): Identity()
          )
          (drop_path): timm.DropPath(0.12857143580913544)
        )
        (6): VSSBlock(
          (norm): LayerNorm((384,), eps=1e-05, elementwise_affine=True)
          (op): SS2D(
            (out_norm): LayerNorm((768,), eps=1e-05, elementwise_affine=True)
            (in_proj): Linear(in_features=384, out_features=1536, bias=False)
            (act): SiLU()
            (conv2d): Conv2d(768, 768, kernel_size=(3, 3), stride=(1, 1), padding=(1, 1), groups=768)
            (out_proj): Linear(in_features=768, out_features=384, bias=False)
            (dropout): Identity()
          )
          (drop_path): timm.DropPath(0.1428571492433548)
        )
        (7): VSSBlock(
          (norm): LayerNorm((384,), eps=1e-05, elementwise_affine=True)
          (op): SS2D(
            (out_norm): LayerNorm((768,), eps=1e-05, elementwise_affine=True)
            (in_proj): Linear(in_features=384, out_features=1536, bias=False)
            (act): SiLU()
            (conv2d): Conv2d(768, 768, kernel_size=(3, 3), stride=(1, 1), padding=(1, 1), groups=768)
            (out_proj): Linear(in_features=768, out_features=384, bias=False)
            (dropout): Identity()
          )
          (drop_path): timm.DropPath(0.15714286267757416)
        )
        (8): VSSBlock(
          (norm): LayerNorm((384,), eps=1e-05, elementwise_affine=True)
          (op): SS2D(
            (out_norm): LayerNorm((768,), eps=1e-05, elementwise_affine=True)
            (in_proj): Linear(in_features=384, out_features=1536, bias=False)
            (act): SiLU()
            (conv2d): Conv2d(768, 768, kernel_size=(3, 3), stride=(1, 1), padding=(1, 1), groups=768)
            (out_proj): Linear(in_features=768, out_features=384, bias=False)
            (dropout): Identity()
          )
          (drop_path): timm.DropPath(0.17142857611179352)
        )
      )
      (downsample): PatchMerging2D(
        (reduction): Linear(in_features=1536, out_features=768, bias=False)
        (norm): LayerNorm((1536,), eps=1e-05, elementwise_affine=True)
      )
    )
    (3): Sequential(
      (blocks): Sequential(
        (0): VSSBlock(
          (norm): LayerNorm((768,), eps=1e-05, elementwise_affine=True)
          (op): SS2D(
            (out_norm): LayerNorm((1536,), eps=1e-05, elementwise_affine=True)
            (in_proj): Linear(in_features=768, out_features=3072, bias=False)
            (act): SiLU()
            (conv2d): Conv2d(1536, 1536, kernel_size=(3, 3), stride=(1, 1), padding=(1, 1), groups=1536)
            (out_proj): Linear(in_features=1536, out_features=768, bias=False)
            (dropout): Identity()
          )
          (drop_path): timm.DropPath(0.18571428954601288)
        )
        (1): VSSBlock(
          (norm): LayerNorm((768,), eps=1e-05, elementwise_affine=True)
          (op): SS2D(
            (out_norm): LayerNorm((1536,), eps=1e-05, elementwise_affine=True)
            (in_proj): Linear(in_features=768, out_features=3072, bias=False)
            (act): SiLU()
            (conv2d): Conv2d(1536, 1536, kernel_size=(3, 3), stride=(1, 1), padding=(1, 1), groups=1536)
            (out_proj): Linear(in_features=1536, out_features=768, bias=False)
            (dropout): Identity()
          )
          (drop_path): timm.DropPath(0.20000000298023224)
        )
      )
      (downsample): Identity()
    )
  )
  (classifier): Sequential(
    (norm): LayerNorm((768,), eps=1e-05, elementwise_affine=True)
    (permute): Permute()
    (avgpool): AdaptiveAvgPool2d(output_size=1)
    (flatten): Flatten(start_dim=1, end_dim=-1)
    (head): Linear(in_features=768, out_features=316, bias=True)
  )
)
[2024-03-31 06:50:05 vssm_tiny] (main.py 114): INFO number of params: 22367452
[2024-03-31 06:50:07 vssm_tiny] (main.py 116): INFO number of GFLOPs: 5.626369728
[2024-03-31 06:50:07 vssm_tiny] (optimizer.py 18): INFO ==============> building optimizer adamw....................
[2024-03-31 06:50:07 vssm_tiny] (optimizer.py 26): INFO No weight deca
…
