…
    <utils.myNormalize object at 0x7fdfbda9d960>
    <utils.myToTensor object at 0x7fdfbda9d9c0>
    <utils.myResize object at 0x7fdfbda9d9f0>
),
2024-03-18 23:52:23 - opt: AdamW,
2024-03-18 23:52:23 - lr: 5e-05,
2024-03-18 23:52:23 - betas: (0.9, 0.999),
2024-03-18 23:52:23 - eps: 1e-08,
2024-03-18 23:52:23 - weight_decay: 0.01,
2024-03-18 23:52:23 - amsgrad: False,
2024-03-18 23:52:23 - sch: CosineAnnealingLR,
2024-03-18 23:52:23 - T_max: 50,
2024-03-18 23:52:23 - eta_min: 5e-07,
2024-03-18 23:52:23 - last_epoch: -1,
2024-03-18 23:52:23 - VMUNet(
  (vmunet): VSSM(
    (patch_embed): PatchEmbed2D(
      (proj): Conv2d(3, 96, kernel_size=(4, 4), stride=(4, 4))
      (norm): LayerNorm((96,), eps=1e-05, elementwise_affine=True)
    )
    (pos_drop): Dropout(p=0.0, inplace=False)
    (layers): ModuleList(
      (0): VSSLayer(
        (blocks): ModuleList(
          (0): VSSBlock(
            (ln_1): LayerNorm((96,), eps=1e-05, elementwise_affine=True)
            (self_attention): SS2D(
              (in_proj): Linear(in_features=96, out_features=384, bias=False)
              (conv2d): Conv2d(192, 192, kernel_size=(3, 3), stride=(1, 1), padding=(1, 1), groups=192)
              (act): SiLU()
              (out_norm): LayerNorm((192,), eps=1e-05, elementwise_affine=True)
              (out_proj): Linear(in_features=192, out_features=96, bias=False)
            )
            (drop_path): timm.DropPath(0.0)
          )
          (1): VSSBlock(
            (ln_1): LayerNorm((96,), eps=1e-05, elementwise_affine=True)
            (self_attention): SS2D(
              (in_proj): Linear(in_features=96, out_features=384, bias=False)
              (conv2d): Conv2d(192, 192, kernel_size=(3, 3), stride=(1, 1), padding=(1, 1), groups=192)
              (act): SiLU()
              (out_norm): LayerNorm((192,), eps=1e-05, elementwise_affine=True)
              (out_proj): Linear(in_features=192, out_features=96, bias=False)
            )
            (drop_path): timm.DropPath(0.02500000037252903)
          )
        )
        (downsample): PatchMerging2D(
          (reduction): Linear(in_features=384, out_features=192, bias=False)
          (norm): LayerNorm((384,), eps=1e-05, elementwise_affine=True)
        )
      )
      (1): VSSLayer(
        (blocks): ModuleList(
          (0): VSSBlock(
            (ln_1): LayerNorm((192,), eps=1e-05, elementwise_affine=True)
            (self_attention): SS2D(
              (in_proj): Linear(in_features=192, out_features=768, bias=False)
              (conv2d): Conv2d(384, 384, kernel_size=(3, 3), stride=(1, 1), padding=(1, 1), groups=384)
              (act): SiLU()
              (out_norm): LayerNorm((384,), eps=1e-05, elementwise_affine=True)
              (out_proj): Linear(in_features=384, out_features=192, bias=False)
            )
            (drop_path): timm.DropPath(0.05000000074505806)
          )
          (1): VSSBlock(
            (ln_1): LayerNorm((192,), eps=1e-05, elementwise_affine=True)
            (self_attention): SS2D(
              (in_proj): Linear(in_features=192, out_features=768, bias=False)
              (conv2d): Conv2d(384, 384, kernel_size=(3, 3), stride=(1, 1), padding=(1, 1), groups=384)
              (act): SiLU()
              (out_norm): LayerNorm((384,), eps=1e-05, elementwise_affine=True)
              (out_proj): Linear(in_features=384, out_features=192, bias=False)
            )
            (drop_path): timm.DropPath(0.07500000298023224)
          )
        )
        (downsample): PatchMerging2D(
          (reduction): Linear(in_features=768, out_features=384, bias=False)
          (norm): LayerNorm((768,), eps=1e-05, elementwise_affine=True)
        )
      )
      (2): VSSLayer(
        (blocks): ModuleList(
          (0): VSSBlock(
            (ln_1): LayerNorm((384,), eps=1e-05, elementwise_affine=True)
            (self_attention): SS2D(
              (in_proj): Linear(in_features=384, out_features=1536, bias=False)
              (conv2d): Conv2d(768, 768, kernel_size=(3, 3), stride=(1, 1), padding=(1, 1), groups=768)
              (act): SiLU()
              (out_norm): LayerNorm((768,), eps=1e-05, elementwise_affine=True)
              (out_proj): Linear(in_features=768, out_features=384, bias=False)
            )
            (drop_path): timm.DropPath(0.10000000149011612)
          )
          (1): VSSBlock(
            (ln_1): LayerNorm((384,), eps=1e-05, elementwise_affine=True)
            (self_attention): SS2D(
              (in_proj): Linear(in_features=384, out_features=1536, bias=False)
              (conv2d): Conv2d(768, 768, kernel_size=(3, 3), stride=(1, 1), padding=(1, 1), groups=768)
              (act): SiLU()
              (out_norm): LayerNorm((768,), eps=1e-05, elementwise_affine=True)
              (out_proj): Linear(in_features=768, out_features=384, bias=False)
            )
            (drop_path): timm.DropPath(0.125)
          )
        )
        (downsample): PatchMerging2D(
          (reduction): Linear(in_features=1536, out_features=768, bias=False)
          (norm): LayerNorm((1536,), eps=1e-05, elementwise_affine=True)
        )
      )
      (3): VSSLayer(
        (blocks): ModuleList(
          (0): VSSBlock(
            (ln_1): LayerNorm((768,), eps=1e-05, elementwise_affine=True)
            (self_attention): SS2D(
              (in_proj): Linear(in_features=768, out_features=3072, bias=False)
              (conv2d): Conv2d(1536, 1536, kernel_size=(3, 3), stride=(1, 1), padding=(1, 1), groups=1536)
              (act): SiLU()
              (out_norm): LayerNorm((1536,), eps=1e-05, elementwise_affine=True)
              (out_proj): Linear(in_features=1536, out_features=768, bias=False)
            )
            (drop_path): timm.DropPath(0.15000000596046448)
          )
          (1): VSSBlock(
            (ln_1): LayerNorm((768,), eps=1e-05, elementwise_affine=True)
            (self_attention): SS2D(
              (in_proj): Linear(in_features=768, out_features=3072, bias=False)
              (conv2d): Conv2d(1536, 1536, kernel_size=(3, 3), stride=(1, 1), padding=(1, 1), groups=1536)
              (act): SiLU()
              (out_norm): LayerNorm((1536,), eps=1e-05, elementwise_affine=True)
              (out_proj): Linear(in_features=1536, out_features=768, bias=False)
            )
            (drop_path): timm.DropPath(0.17499999701976776)
          )
        )
        (downsample): MyDownsample(
          (blocks): Sequential(
            (0): Permute()
            (1): Conv2d(768, 768, kernel_size=(3, 3), stride=(2, 2), padding=(1, 1), groups=768)
            (2): Conv2d(768, 768, kernel_size=(1, 1), stride=(1, 1))
            (3): GELU(approximate='none')
            (4): Conv2d(768, 768, kernel_size=(1, 1), stride=(1, 1))
            (5): Permute()
          )
        )
      )
      (4): VSSLayer(
        (blocks): ModuleList(
          (0): VSSBlock(
            (ln_1): LayerNorm((768,), eps=1e-05, elementwise_affine=True)
            (self_attention): SS2D(
              (in_proj): Linear(in_features=768, out_features=3072, bias=False)
              (conv2d): Conv2d(1536, 1536, kernel_size=(3, 3), stride=(1, 1), padding=(1, 1), groups=1536)
              (act): SiLU()
              (out_norm): LayerNorm((1536,), eps=1e-05, elementwise_affine=True)
              (out_proj): Linear(in_features=1536, out_features=768, bias=False)
            )
            (drop_path): timm.DropPath(0.20000000298023224)
          )
        )
      )
    )
    (layers_up): ModuleList(
      (0): VSSLayer_up(
        (blocks): ModuleList(
          (0): VSSBlock(
            (ln_1): LayerNorm((768,), eps=1e-05, elementwise_affine=True)
            (self_attention): SS2D(
              (in_proj): Linear(in_features=768, out_features=3072, bias=False)
              (conv2d): Conv2d(1536, 1536, kernel_size=(3, 3), stride=(1, 1), padding=(1, 1), groups=1536)
              (act): SiLU()
              (out_norm): LayerNorm((1536,), eps=1e-05, elementwise_affine=True)
              (out_proj): Linear(in_features=1536, out_features=768, bias=False)
            )
            (drop_path): timm.DropPath(0.20000000298023224)
          )
        )
      )
      (1): VSSLayer_up(
        (blocks): ModuleList(
          (0): VSSBlock(
            (ln_1): LayerNorm((768,), eps=1e-05, elementwise_affine=True)
            (self_attention): SS2D(
              (in_proj): Linear(in_features=768, out_features=3072, bias=False)
              (conv2d): Conv2d(1536, 1536, kernel_size=(3, 3), stride=(1, 1), padding=(1, 1), groups=1536)
              (act): SiLU()
              (out_norm): LayerNorm((1536,), eps=1e-05, elementwise_affine=True)
              (out_proj): Linear(in_features=1536, out_features=768, bias=False)
            )
            (drop_path): timm.DropPath(0.17499999701976776)
          )
          (1): VSSBlock(
            (ln_1): LayerNorm((768,), eps=1e-05, elementwise_affine=True)
            (self_attention): SS2D(
              (in_proj): Linear(in_features=768, out_features=3072, bias=False)
              (conv2d): Conv2d(1536, 1536, kernel_size=(3, 3), stride=(1, 1), padding=(1, 1), groups=1536)
              (act): SiLU()
              (out_norm): LayerNorm((1536,), eps=1e-05, elementwise_affine=True)
              (out_proj): Linear(in_features=1536, out_features=768, bias=False)
            )
            (drop_path): timm.DropPath(0.15000000596046448)
          )
        )
        (upsample): MyUpsample(
          (blocks): Sequential(
            (0): Permute()
            (1): BilinearInterpolation()
            (2): Conv2d(768, 768, kernel_size=(3, 3), stride=(1, 1), padding=(1, 1), groups=768)
            (3): GELU(approximate='none')
            (4): Conv2d(768, 768, kernel_size=(1, 1), stride=(1, 1))
            (5): Permute()
          )
        )
      )
      (2): VSSLayer_up(
        (blocks): ModuleList(
          (0): VSSBlock(
            (ln_1): LayerNorm((384,), eps=1e-05, elementwise_affine=True)
            (self_attention): SS2D(
              (in_proj): Linear(in_features=384, out_features=1536, bias=False)
              (conv2d): Conv2d(768, 768, kernel_size=(3, 3), stride=(1, 1), padding=(1, 1), groups=768)
              (act): SiLU()
              (out_norm): LayerNorm((768,), eps=1e-05, elementwise_affine=True)
              (out_proj): Linear(in_features=768, out_features=384, bias=False)
            )
            (drop_path): timm.DropPath(0.125)
          )
          (1): VSSBlock(
            (ln_1): LayerNorm((384,), eps=1e-05, elementwise_affine=True)
            (self_attention): SS2D(
              (in_proj): Linear(in_features=384, out_features=1536, bias=False)
              (conv2d): Conv2d(768, 768, kernel_size=(3, 3), stride=(1, 1), padding=(1, 1), groups=768)
              (act): SiLU()
              (out_norm): LayerNorm((768,), eps=1e-05, elementwise_affine=True)
              (out_proj): Linear(in_features=768, out_features=384, bias=False)
            )
            (drop_path): timm.DropPath(0.10000000149011612)
          )
        )
        (upsample): PatchExpand2D(
          (expand): Linear(in_features=768, out_features=1536, bias=False)
          (norm): LayerNorm((384,), eps=1e-05, elementwise_affine=True)
        )
      )
      (3): VSSLayer_up(
        (blocks): ModuleList(
          (0): VSSBlock(
            (ln_1): LayerNorm((192,), eps=1e-05, elementwise_affine=True)
            (self_attention): SS2D(
              (in_proj): Linear(in_features=192, out_features=768, bias=False)
              (conv2d): Conv2d(384, 384, kernel_size=(3, 3), stride=(1, 1), padding=(1, 1), groups=384)
              (act): SiLU()
              (out_norm): LayerNorm((384,), eps=1e-05, elementwise_affine=True)
              (out_proj): Linear(in_features=384, out_features=192, bias=False)
            )
            (drop_path): timm.DropPath(0.07500000298023224)
          )
          (1): VSSBlock(
            (ln_1): LayerNorm((192,), eps=1e-05, elementwise_affine=True)
            (self_attention): SS2D(
              (in_proj): Linear(in_features=192, out_features=768, bias=False)
              (conv2d): Conv2d(384, 384, kernel_size=(3, 3), stride=(1, 1), padding=(1, 1), groups=384)
              (act): SiLU()
              (out_norm): LayerNorm((384,), eps=1e-05, elementwise_affine=True)
              (out_proj): Linear(in_features=384, out_features=192, bias=False)
            )
            (drop_path): timm.DropPath(0.05000000074505806)
          )
        )
        (upsample): PatchExpand2D(
          (expand): Linear(in_features=384, out_features=768, bias=False)
          (norm): LayerNorm((192,), eps=1e-05, elementwise_affine=True)
        )
      )
      (4): VSSLayer_up(
        (blocks): ModuleList(
          (0): VSSBlock(
            (ln_1): LayerNorm((96,), eps=1e-05, elementwise_affine=True)
            (self_attention): SS2D(
              (in_proj): Linear(in_features=96, out_features=384, bias=False)
              (conv2d): Conv2d(192, 192, kernel_size=(3, 3), stride=(1, 1), padding=(1, 1), groups=192)
              (act): SiLU()
              (out_norm): LayerNorm((192,), eps=1e-05, elementwise_affine=True)
              (out_proj): Linear(in_features=192, out_features=96, bias=False)
            )
            (drop_path): timm.DropPath(0.02500000037252903)
          )
          (1): VSSBlock(
            (ln_1): LayerNorm((96,), eps=1e-05, elementwise_affine=True)
            (self_attention): SS2D(
              (in_proj): Linear(in_features=96, out_features=384, bias=False)
              (conv2d): Conv2d(192, 192, kernel_size=(3, 3), stride=(1, 1), padding=(1, 1), groups=192)
              (act): SiLU()
              (out_norm): LayerNorm((192,), eps=1e-05, elementwise_affine=True)
              (out_proj): Linear(in_features=192, out_features=96, bias=False)
            )
            (drop_path): timm.DropPath(0.0)
          )
        )
        (upsample): PatchExpand2D(
          (expand): Linear(in_features=192, out_features=384, bias=False)
          (norm): LayerNorm((96,), eps=1e-05, elementwise_affine=True)
        )
      )
    )
    (final_up): Final_PatchExpand2D(
      (expand): Linear(in_features=96, out_features=384, bias=False)
      (norm): LayerNorm((24,), eps=1e-05, elementwise_affine=True)
    )
    (final_conv): Conv2d(24, 1, kernel_size=(1, 1), stride=(1, 1))
  )
)
2024-03-18 23:52:25 - flops: 4.52130816, params: 31.000489, Total params: : 38.2320
2024-03-18 23:52:28 - train: epoch 1, iter:0, loss: 1.7718, lr: 5e-05
2024-03-18 23:52:36 - train: epoch 1, iter:10, loss: 1.5808, lr: 5e-05
2024-03-18 23:52:44 - train: epoch 1, iter:20, loss: 1.4705, lr: 5e-05
2024-03-18 23:52:53 - train: epoch 1, iter:30, loss: 1.3964, lr: 5e-05
…
