…
    <utils.myNormalize object at 0x7f5b5a96bc40>
    <utils.myToTensor object at 0x7f5b5a96bca0>
    <utils.myResize object at 0x7f5b5a96bcd0>
),
2024-03-26 00:58:26 - opt: AdamW,
2024-03-26 00:58:26 - lr: 5e-07,
2024-03-26 00:58:26 - betas: (0.9, 0.999),
2024-03-26 00:58:26 - eps: 1e-08,
2024-03-26 00:58:26 - weight_decay: 0.01,
2024-03-26 00:58:26 - amsgrad: False,
2024-03-26 00:58:26 - sch: CosineAnnealingLR,
2024-03-26 00:58:26 - T_max: 25,
2024-03-26 00:58:26 - eta_min: 5e-05,
2024-03-26 00:58:26 - last_epoch: -1,
2024-03-26 00:58:26 - VMUNet(
  (vmunet): VSSM(
    (patch_embed): PatchEmbed2D(
      (proj): Conv2d(3, 96, kernel_size=(4, 4), stride=(4, 4))
      (norm): LayerNorm((96,), eps=1e-05, elementwise_affine=True)
    )
    (pos_drop): Dropout(p=0.0, inplace=False)
    (layers): ModuleList(
      (0): VSSLayer(
        (blocks): ModuleList(
          (0): VSSBlock(
            (ln_1): LayerNorm((96,), eps=1e-05, elementwise_affine=True)
            (self_attention): SS2D(
              (in_proj): Linear(in_features=96, out_features=384, bias=False)
              (conv2d): Conv2d(192, 192, kernel_size=(3, 3), stride=(1, 1), padding=(1, 1), groups=192)
              (act): SiLU()
              (out_norm): LayerNorm((192,), eps=1e-05, elementwise_affine=True)
              (out_proj): Linear(in_features=192, out_features=96, bias=False)
            )
            (drop_path): timm.DropPath(0.0)
          )
          (1): VSSBlock(
            (ln_1): LayerNorm((96,), eps=1e-05, elementwise_affine=True)
            (self_attention): SS2D(
              (in_proj): Linear(in_features=96, out_features=384, bias=False)
              (conv2d): Conv2d(192, 192, kernel_size=(3, 3), stride=(1, 1), padding=(1, 1), groups=192)
              (act): SiLU()
              (out_norm): LayerNorm((192,), eps=1e-05, elementwise_affine=True)
              (out_proj): Linear(in_features=192, out_features=96, bias=False)
            )
            (drop_path): timm.DropPath(0.02222222276031971)
          )
        )
        (downsample): PatchMerging2D(
          (reduction): Linear(in_features=384, out_features=192, bias=False)
          (norm): LayerNorm((384,), eps=1e-05, elementwise_affine=True)
        )
      )
      (1): VSSLayer(
        (blocks): ModuleList(
          (0): VSSBlock(
            (ln_1): LayerNorm((192,), eps=1e-05, elementwise_affine=True)
            (self_attention): SS2D(
              (in_proj): Linear(in_features=192, out_features=768, bias=False)
              (conv2d): Conv2d(384, 384, kernel_size=(3, 3), stride=(1, 1), padding=(1, 1), groups=384)
              (act): SiLU()
              (out_norm): LayerNorm((384,), eps=1e-05, elementwise_affine=True)
              (out_proj): Linear(in_features=384, out_features=192, bias=False)
            )
            (drop_path): timm.DropPath(0.04444444552063942)
          )
          (1): VSSBlock(
            (ln_1): LayerNorm((192,), eps=1e-05, elementwise_affine=True)
            (self_attention): SS2D(
              (in_proj): Linear(in_features=192, out_features=768, bias=False)
              (conv2d): Conv2d(384, 384, kernel_size=(3, 3), stride=(1, 1), padding=(1, 1), groups=384)
              (act): SiLU()
              (out_norm): LayerNorm((384,), eps=1e-05, elementwise_affine=True)
              (out_proj): Linear(in_features=384, out_features=192, bias=False)
            )
            (drop_path): timm.DropPath(0.06666667014360428)
          )
        )
        (downsample): PatchMerging2D(
          (reduction): Linear(in_features=768, out_features=384, bias=False)
          (norm): LayerNorm((768,), eps=1e-05, elementwise_affine=True)
        )
      )
      (2): VSSLayer(
        (blocks): ModuleList(
          (0): VSSBlock(
            (ln_1): LayerNorm((384,), eps=1e-05, elementwise_affine=True)
            (self_attention): SS2D(
              (in_proj): Linear(in_features=384, out_features=1536, bias=False)
              (conv2d): Conv2d(768, 768, kernel_size=(3, 3), stride=(1, 1), padding=(1, 1), groups=768)
              (act): SiLU()
              (out_norm): LayerNorm((768,), eps=1e-05, elementwise_affine=True)
              (out_proj): Linear(in_features=768, out_features=384, bias=False)
            )
            (drop_path): timm.DropPath(0.08888889104127884)
          )
          (1): VSSBlock(
            (ln_1): LayerNorm((384,), eps=1e-05, elementwise_affine=True)
            (self_attention): SS2D(
              (in_proj): Linear(in_features=384, out_features=1536, bias=False)
              (conv2d): Conv2d(768, 768, kernel_size=(3, 3), stride=(1, 1), padding=(1, 1), groups=768)
              (act): SiLU()
              (out_norm): LayerNorm((768,), eps=1e-05, elementwise_affine=True)
              (out_proj): Linear(in_features=768, out_features=384, bias=False)
            )
            (drop_path): timm.DropPath(0.1111111119389534)
          )
          (2): VSSBlock(
            (ln_1): LayerNorm((384,), eps=1e-05, elementwise_affine=True)
            (self_attention): SS2D(
              (in_proj): Linear(in_features=384, out_features=1536, bias=False)
              (conv2d): Conv2d(768, 768, kernel_size=(3, 3), stride=(1, 1), padding=(1, 1), groups=768)
              (act): SiLU()
              (out_norm): LayerNorm((768,), eps=1e-05, elementwise_affine=True)
              (out_proj): Linear(in_features=768, out_features=384, bias=False)
            )
            (drop_path): timm.DropPath(0.13333334028720856)
          )
          (3): VSSBlock(
            (ln_1): LayerNorm((384,), eps=1e-05, elementwise_affine=True)
            (self_attention): SS2D(
              (in_proj): Linear(in_features=384, out_features=1536, bias=False)
              (conv2d): Conv2d(768, 768, kernel_size=(3, 3), stride=(1, 1), padding=(1, 1), groups=768)
              (act): SiLU()
              (out_norm): LayerNorm((768,), eps=1e-05, elementwise_affine=True)
              (out_proj): Linear(in_features=768, out_features=384, bias=False)
            )
            (drop_path): timm.DropPath(0.15555556118488312)
          )
        )
        (downsample): PatchMerging2D(
          (reduction): Linear(in_features=1536, out_features=768, bias=False)
          (norm): LayerNorm((1536,), eps=1e-05, elementwise_affine=True)
        )
      )
      (3): VSSLayer(
        (blocks): ModuleList(
          (0): VSSBlock(
            (ln_1): LayerNorm((768,), eps=1e-05, elementwise_affine=True)
            (self_attention): SS2D(
              (in_proj): Linear(in_features=768, out_features=3072, bias=False)
              (conv2d): Conv2d(1536, 1536, kernel_size=(3, 3), stride=(1, 1), padding=(1, 1), groups=1536)
              (act): SiLU()
              (out_norm): LayerNorm((1536,), eps=1e-05, elementwise_affine=True)
              (out_proj): Linear(in_features=1536, out_features=768, bias=False)
            )
            (drop_path): timm.DropPath(0.17777778208255768)
          )
          (1): VSSBlock(
            (ln_1): LayerNorm((768,), eps=1e-05, elementwise_affine=True)
            (self_attention): SS2D(
              (in_proj): Linear(in_features=768, out_features=3072, bias=False)
              (conv2d): Conv2d(1536, 1536, kernel_size=(3, 3), stride=(1, 1), padding=(1, 1), groups=1536)
              (act): SiLU()
              (out_norm): LayerNorm((1536,), eps=1e-05, elementwise_affine=True)
              (out_proj): Linear(in_features=1536, out_features=768, bias=False)
            )
            (drop_path): timm.DropPath(0.20000000298023224)
          )
        )
      )
    )
    (layers_up): ModuleList(
      (0): VSSLayer_up(
        (blocks): ModuleList(
          (0): VSSBlock(
            (ln_1): LayerNorm((384,), eps=1e-05, elementwise_affine=True)
            (self_attention): SS2D(
              (in_proj): Linear(in_features=384, out_features=1536, bias=False)
              (conv2d): Conv2d(768, 768, kernel_size=(3, 3), stride=(1, 1), padding=(1, 1), groups=768)
              (act): SiLU()
              (out_norm): LayerNorm((768,), eps=1e-05, elementwise_affine=True)
              (out_proj): Linear(in_features=768, out_features=384, bias=False)
            )
            (drop_path): timm.DropPath(0.20000000298023224)
          )
          (1): VSSBlock(
            (ln_1): LayerNorm((384,), eps=1e-05, elementwise_affine=True)
            (self_attention): SS2D(
              (in_proj): Linear(in_features=384, out_features=1536, bias=False)
              (conv2d): Conv2d(768, 768, kernel_size=(3, 3), stride=(1, 1), padding=(1, 1), groups=768)
              (act): SiLU()
              (out_norm): LayerNorm((768,), eps=1e-05, elementwise_affine=True)
              (out_proj): Linear(in_features=768, out_features=384, bias=False)
            )
            (drop_path): timm.DropPath(0.17142857611179352)
          )
          (2): VSSBlock(
            (ln_1): LayerNorm((384,), eps=1e-05, elementwise_affine=True)
            (self_attention): SS2D(
              (in_proj): Linear(in_features=384, out_features=1536, bias=False)
              (conv2d): Conv2d(768, 768, kernel_size=(3, 3), stride=(1, 1), padding=(1, 1), groups=768)
              (act): SiLU()
              (out_norm): LayerNorm((768,), eps=1e-05, elementwise_affine=True)
              (out_proj): Linear(in_features=768, out_features=384, bias=False)
            )
            (drop_path): timm.DropPath(0.1428571492433548)
          )
          (3): VSSBlock(
            (ln_1): LayerNorm((384,), eps=1e-05, elementwise_affine=True)
            (self_attention): SS2D(
              (in_proj): Linear(in_features=384, out_features=1536, bias=False)
              (conv2d): Conv2d(768, 768, kernel_size=(3, 3), stride=(1, 1), padding=(1, 1), groups=768)
              (act): SiLU()
              (out_norm): LayerNorm((768,), eps=1e-05, elementwise_affine=True)
              (out_proj): Linear(in_features=768, out_features=384, bias=False)
            )
            (drop_path): timm.DropPath(0.11428571492433548)
          )
        )
        (upsample): PatchExpand2D(
          (expand): Linear(in_features=768, out_features=1536, bias=False)
          (norm): LayerNorm((384,), eps=1e-05, elementwise_affine=True)
        )
      )
      (1): VSSLayer_up(
        (blocks): ModuleList(
          (0): VSSBlock(
            (ln_1): LayerNorm((192,), eps=1e-05, elementwise_affine=True)
            (self_attention): SS2D(
              (in_proj): Linear(in_features=192, out_features=768, bias=False)
              (conv2d): Conv2d(384, 384, kernel_size=(3, 3), stride=(1, 1), padding=(1, 1), groups=384)
              (act): SiLU()
              (out_norm): LayerNorm((384,), eps=1e-05, elementwise_affine=True)
              (out_proj): Linear(in_features=384, out_features=192, bias=False)
            )
            (drop_path): timm.DropPath(0.08571428805589676)
          )
          (1): VSSBlock(
            (ln_1): LayerNorm((192,), eps=1e-05, elementwise_affine=True)
            (self_attention): SS2D(
              (in_proj): Linear(in_features=192, out_features=768, bias=False)
              (conv2d): Conv2d(384, 384, kernel_size=(3, 3), stride=(1, 1), padding=(1, 1), groups=384)
              (act): SiLU()
              (out_norm): LayerNorm((384,), eps=1e-05, elementwise_affine=True)
              (out_proj): Linear(in_features=384, out_features=192, bias=False)
            )
            (drop_path): timm.DropPath(0.05714285746216774)
          )
        )
        (upsample): PatchExpand2D(
          (expand): Linear(in_features=384, out_features=768, bias=False)
          (norm): LayerNorm((192,), eps=1e-05, elementwise_affine=True)
        )
      )
      (2): VSSLayer_up(
        (blocks): ModuleList(
          (0): VSSBlock(
            (ln_1): LayerNorm((96,), eps=1e-05, elementwise_affine=True)
            (self_attention): SS2D(
              (in_proj): Linear(in_features=96, out_features=384, bias=False)
              (conv2d): Conv2d(192, 192, kernel_size=(3, 3), stride=(1, 1), padding=(1, 1), groups=192)
              (act): SiLU()
              (out_norm): LayerNorm((192,), eps=1e-05, elementwise_affine=True)
              (out_proj): Linear(in_features=192, out_features=96, bias=False)
            )
            (drop_path): timm.DropPath(0.02857142873108387)
          )
          (1): VSSBlock(
            (ln_1): LayerNorm((96,), eps=1e-05, elementwise_affine=True)
            (self_attention): SS2D(
              (in_proj): Linear(in_features=96, out_features=384, bias=False)
              (conv2d): Conv2d(192, 192, kernel_size=(3, 3), stride=(1, 1), padding=(1, 1), groups=192)
              (act): SiLU()
              (out_norm): LayerNorm((192,), eps=1e-05, elementwise_affine=True)
              (out_proj): Linear(in_features=192, out_features=96, bias=False)
            )
            (drop_path): timm.DropPath(0.0)
          )
        )
        (upsample): PatchExpand2D(
          (expand): Linear(in_features=192, out_features=384, bias=False)
          (norm): LayerNorm((96,), eps=1e-05, elementwise_affine=True)
        )
      )
    )
    (concat_layers): ModuleList(
      (0): Sequential(
        (0): Permute()
        (1): Conv2d(768, 384, kernel_size=(1, 1), stride=(1, 1))
        (2): Permute()
        (3): LayerNorm((384,), eps=1e-05, elementwise_affine=True)
      )
      (1): Sequential(
        (0): Permute()
        (1): Conv2d(384, 192, kernel_size=(1, 1), stride=(1, 1))
        (2): Permute()
        (3): LayerNorm((192,), eps=1e-05, elementwise_affine=True)
      )
      (2): Sequential(
        (0): Permute()
        (1): Conv2d(192, 96, kernel_size=(1, 1), stride=(1, 1))
        (2): Permute()
        (3): LayerNorm((96,), eps=1e-05, elementwise_affine=True)
      )
    )
    (final_up): Final_PatchExpand2D(
      (expand): Linear(in_features=96, out_features=384, bias=False)
      (norm): LayerNorm((24,), eps=1e-05, elementwise_affine=True)
    )
    (final_conv): Conv2d(24, 1, kernel_size=(1, 1), stride=(1, 1))
  )
)
2024-03-26 00:58:27 - flops: 5.041225728, params: 18.945673, Total params: : 23.7933
2024-03-26 00:58:31 - train: epoch 1, iter:0, loss: 1.2340, lr: 5e-07
2024-03-26 00:58:39 - train: epoch 1, iter:10, loss: 1.2340, lr: 5e-07
2024-03-26 00:58:47 - train: epoch 1, iter:20, loss: 1.2314, lr: 5e-07
2024-03-26 00:58:56 - train: epoch 1, iter:30, loss: 1.2299, lr: 5e-07
…
